(tensorflow) viceroy\(__git_ps1) Image_Classification $ python cnn.py 
Using TensorFlow backend.
_________________________________________________________________
Layer (type)                 Output Shape              Param #   
=================================================================
conv2d_1 (Conv2D)            (None, 32, 32, 4)         112       
_________________________________________________________________
conv2d_2 (Conv2D)            (None, 32, 32, 4)         148       
_________________________________________________________________
conv2d_3 (Conv2D)            (None, 32, 32, 4)         148       
_________________________________________________________________
max_pooling2d_1 (MaxPooling2 (None, 16, 16, 4)         0         
_________________________________________________________________
conv2d_4 (Conv2D)            (None, 16, 16, 8)         296       
_________________________________________________________________
conv2d_5 (Conv2D)            (None, 16, 16, 8)         584       
_________________________________________________________________
conv2d_6 (Conv2D)            (None, 16, 16, 8)         584       
_________________________________________________________________
max_pooling2d_2 (MaxPooling2 (None, 8, 8, 8)           0         
_________________________________________________________________
flatten_1 (Flatten)          (None, 512)               0         
_________________________________________________________________
dense_1 (Dense)              (None, 1024)              525312    
_________________________________________________________________
dense_2 (Dense)              (None, 600)               615000    
=================================================================
Total params: 1,142,184
Trainable params: 1,142,184
Non-trainable params: 0
_________________________________________________________________
None
Train on 7624 samples, validate on 78 samples
Epoch 1/50
2018-12-17 08:06:17.143605: I tensorflow/core/platform/cpu_feature_guard.cc:141] Your CPU supports instructions that this TensorFlow binary was not compiled to use: AVX2 FMA
…
